…
  return self.fget.__get__(instance, owner)()
start benchmark
/home/victor/anaconda3/envs/nir/lib/python3.11/site-packages/torch/cuda/memory.py:303: FutureWarning: torch.cuda.reset_max_memory_allocated now calls torch.cuda.reset_peak_memory_stats, which resets /all/ peak memory stats.
  warnings.warn(
/home/victor/anaconda3/envs/nir/lib/python3.11/site-packages/torch/cuda/memory.py:303: FutureWarning: torch.cuda.reset_max_memory_allocated now calls torch.cuda.reset_peak_memory_stats, which resets /all/ peak memory stats.
  warnings.warn(
model:
[OPTModel(
  (decoder): OPTDecoder(
    (embed_tokens): PipeComputeModule(
      (module): Embedding(50272, 2048, padding_idx=1)
    )
    (embed_positions): PipeComputeModule(
      (module): OPTLearnedPositionalEmbedding(2050, 2048)
    )
    (final_layer_norm): PipeDummyModule(
      (fake_generator): FakeTupleTensorGenerator(device=0)
    )
    (layers): ModuleList(
      (0-10): 11 x PipeComputeModule(
        (module): OPTDecoderLayer(
          (self_attn): OPTAttention(
            (k_proj): Linear(in_features=2048, out_features=2048, bias=True)
            (v_proj): Linear(in_features=2048, out_features=2048, bias=True)
            (q_proj): Linear(in_features=2048, out_features=2048, bias=True)
            (out_proj): Linear(in_features=2048, out_features=2048, bias=True)
          )
          (activation_fn): ReLU()
          (self_attn_layer_norm): LayerNorm((2048,), eps=1e-05, elementwise_affine=True)
          (fc1): Linear(in_features=2048, out_features=8192, bias=True)
          (fc2): Linear(in_features=8192, out_features=2048, bias=True)
          (final_layer_norm): LayerNorm((2048,), eps=1e-05, elementwise_affine=True)
        )
      )
      (11): PipeLeaderTupleStrategyModule(
        (module): OPTDecoderLayer(
          (self_attn): OPTAttention(
            (k_proj): Linear(in_features=2048, out_features=2048, bias=True)
            (v_proj): Linear(in_features=2048, out_features=2048, bias=True)
            (q_proj): Linear(in_features=2048, out_features=2048, bias=True)
            (out_proj): Linear(in_features=2048, out_features=2048, bias=True)
          )
          (activation_fn): ReLU()
          (self_attn_layer_norm): LayerNorm((2048,), eps=1e-05, elementwise_affine=True)
          (fc1): Linear(in_features=2048, out_features=8192, bias=True)
          (fc2): Linear(in_features=8192, out_features=2048, bias=True)
          (final_layer_norm): LayerNorm((2048,), eps=1e-05, elementwise_affine=True)
        )
      )
      (12-23): 12 x PipeDummyModule(
        (fake_generator): FakeTupleTensorGenerator(device=0)
      )
    )
  )
), PipeLeaderStrategyModule(
  (module): PipeDummyModule(
    (fake_generator): FakeSeqGenerator(device=0)
  )
)]
/home/victor/anaconda3/envs/nir/lib/python3.11/site-packages/torch/cuda/memory.py:303: FutureWarning: torch.cuda.reset_max_memory_allocated now calls torch.cuda.reset_peak_memory_stats, which resets /all/ peak memory stats.
…
max memory allocated per device for generator (GB):            
    device 0: 2.650
    device 1: 2.635

max memory allocated per device for inference (GB):            
    device 0: 2.834
    device 1: 2.812

max memory allocated per device (GB):            
    device 0: 2.834
    device 1: 2.812
---device:1---:
OPTForCausalLM(
  (model): OPTModel(
    (decoder): OPTDecoder(
      (embed_tokens): PipeDummyModule(
        (fake_generator): FakeSeqGenerator(device=1)
      )
      (embed_positions): PipeDummyModule(
        (fake_generator): FakeSeqGenerator(device=1)
      )
      (final_layer_norm): PipeComputeModule(
        (module): LayerNorm((2048,), eps=1e-05, elementwise_affine=True)
      )
      (layers): ModuleList(
        (0-10): 11 x PipeDummyModule(
          (fake_generator): FakeTupleTensorGenerator(device=1)
        )
        (11): PipeLeaderTupleStrategyModule(
          (module): PipeDummyModule(
            (fake_generator): FakeTupleTensorGenerator(device=1)
          )
        )
        (12-23): 12 x PipeComputeModule(
          (module): OPTDecoderLayer(
            (self_attn): OPTAttention(
              (k_proj): Linear(in_features=2048, out_features=2048, bias=True)
              (v_proj): Linear(in_features=2048, out_features=2048, bias=True)
              (q_proj): Linear(in_features=2048, out_features=2048, bias=True)
              (out_proj): Linear(in_features=2048, out_features=2048, bias=True)
            )
            (activation_fn): ReLU()
            (self_attn_layer_norm): LayerNorm((2048,), eps=1e-05, elementwise_affine=True)
            (fc1): Linear(in_features=2048, out_features=8192, bias=True)
            (fc2): Linear(in_features=8192, out_features=2048, bias=True)
            (final_layer_norm): LayerNorm((2048,), eps=1e-05, elementwise_affine=True)
          )
        )
      )
    )
  )
  (lm_head): PipeLeaderStrategyModule(
    (module): Linear(in_features=2048, out_features=50272, bias=False)
  )
)
---device:0---:
OPTForCausalLM(
  (model): OPTModel(
    (decoder): OPTDecoder(
      (embed_tokens): PipeComputeModule(
        (module): Embedding(50272, 2048, padding_idx=1)
      )
      (embed_positions): PipeComputeModule(
        (module): OPTLearnedPositionalEmbedding(2050, 2048)
      )
      (final_layer_norm): PipeDummyModule(
        (fake_generator): FakeTupleTensorGenerator(device=0)
      )
      (layers): ModuleList(
        (0-10): 11 x PipeComputeModule(
          (module): OPTDecoderLayer(
            (self_attn): OPTAttention(
              (k_proj): Linear(in_features=2048, out_features=2048, bias=True)
              (v_proj): Linear(in_features=2048, out_features=2048, bias=True)
              (q_proj): Linear(in_features=2048, out_features=2048, bias=True)
              (out_proj): Linear(in_features=2048, out_features=2048, bias=True)
            )
            (activation_fn): ReLU()
            (self_attn_layer_norm): LayerNorm((2048,), eps=1e-05, elementwise_affine=True)
            (fc1): Linear(in_features=2048, out_features=8192, bias=True)
            (fc2): Linear(in_features=8192, out_features=2048, bias=True)
            (final_layer_norm): LayerNorm((2048,), eps=1e-05, elementwise_affine=True)
          )
        )
        (11): PipeLeaderTupleStrategyModule(
          (module): OPTDecoderLayer(
            (self_attn): OPTAttention(
              (k_proj): Linear(in_features=2048, out_features=2048, bias=True)
              (v_proj): Linear(in_features=2048, out_features=2048, bias=True)
              (q_proj): Linear(in_features=2048, out_features=2048, bias=True)
              (out_proj): Linear(in_features=2048, out_features=2048, bias=True)
            )
            (activation_fn): ReLU()
            (self_attn_layer_norm): LayerNorm((2048,), eps=1e-05, elementwise_affine=True)
            (fc1): Linear(in_features=2048, out_features=8192, bias=True)
            (fc2): Linear(in_features=8192, out_features=2048, bias=True)
            (final_layer_norm): LayerNorm((2048,), eps=1e-05, elementwise_affine=True)
          )
        )
        (12-23): 12 x PipeDummyModule(
          (fake_generator): FakeTupleTensorGenerator(device=0)
        )
      )
    )
  )
  (lm_head): PipeLeaderStrategyModule(
    (module): PipeDummyModule(
      (fake_generator): FakeSeqGenerator(device=0)
    )
  )
)
