…
start benchmark
/home/victor/anaconda3/envs/nir/lib/python3.11/site-packages/torch/cuda/memory.py:303: FutureWarning: torch.cuda.reset_max_memory_allocated now calls torch.cuda.reset_peak_memory_stats, which resets /all/ peak memory stats.
  warnings.warn(
/home/victor/anaconda3/envs/nir/lib/python3.11/site-packages/torch/cuda/memory.py:303: FutureWarning: torch.cuda.reset_max_memory_allocated now calls torch.cuda.reset_peak_memory_stats, which resets /all/ peak memory stats.
  warnings.warn(
model:
[OPTModel(
  (decoder): OPTDecoder(
    (embed_tokens): PipeComputeModule(role=PipeRole.compute
      (module): Embedding(50272, 2048, padding_idx=1)
    )
    (embed_positions): PipeComputeModule(role=PipeRole.compute
      (module): OPTLearnedPositionalEmbedding(2050, 2048)
    )
    (final_layer_norm): PipeFakeModule(role=PipeRole.dummy
      (fake_module): FakeTupleSeqModule(device=0)
    )
    (layers): ModuleList(
      (0-10): 11 x PipeComputeModule(role=PipeRole.compute
        (module): OPTDecoderLayer(
          (self_attn): OPTAttention(
            (k_proj): Linear(in_features=2048, out_features=2048, bias=True)
            (v_proj): Linear(in_features=2048, out_features=2048, bias=True)
            (q_proj): Linear(in_features=2048, out_features=2048, bias=True)
            (out_proj): Linear(in_features=2048, out_features=2048, bias=True)
          )
          (activation_fn): ReLU()
          (self_attn_layer_norm): LayerNorm((2048,), eps=1e-05, elementwise_affine=True)
          (fc1): Linear(in_features=2048, out_features=8192, bias=True)
          (fc2): Linear(in_features=8192, out_features=2048, bias=True)
          (final_layer_norm): LayerNorm((2048,), eps=1e-05, elementwise_affine=True)
        )
      )
      (11): PipeStrategyModule(role=PipeRole.computeAndSend
        (module): OPTDecoderLayer(
          (self_attn): OPTAttention(
            (k_proj): Linear(in_features=2048, out_features=2048, bias=True)
            (v_proj): Linear(in_features=2048, out_features=2048, bias=True)
            (q_proj): Linear(in_features=2048, out_features=2048, bias=True)
            (out_proj): Linear(in_features=2048, out_features=2048, bias=True)
          )
          (activation_fn): ReLU()
          (self_attn_layer_norm): LayerNorm((2048,), eps=1e-05, elementwise_affine=True)
          (fc1): Linear(in_features=2048, out_features=8192, bias=True)
          (fc2): Linear(in_features=8192, out_features=2048, bias=True)
          (final_layer_norm): LayerNorm((2048,), eps=1e-05, elementwise_affine=True)
        )
        (strategy): LeaderTupleStrategyModule()
      )
      (12-23): 12 x PipeFakeModule(role=PipeRole.dummy
        (fake_module): FakeTupleSeqModule(device=0)
      )
    )
  )
), PipeStrategyModule(role=PipeRole.recv
  (module): FakeSeqModule(device=0)
  (strategy): LeaderStrategyModule()
)]
/home/victor/anaconda3/envs/nir/lib/python3.11/site-packages/torch/cuda/memory.py:303: FutureWarning: torch.cuda.reset_max_memory_allocated now calls torch.cuda.reset_peak_memory_stats, which resets /all/ peak memory stats.
…
/home/victor/anaconda3/envs/nir/lib/python3.11/site-packages/torch/cuda/memory.py:303: FutureWarning: torch.cuda.reset_max_memory_allocated now calls torch.cuda.reset_peak_memory_stats, which resets /all/ peak memory stats.
  warnings.warn(
stop benchmark
---device:1---:
OPTForCausalLM(
  (model): OPTModel(
    (decoder): OPTDecoder(
      (embed_tokens): PipeFakeModule(role=PipeRole.dummy
        (fake_module): FakeSeqModule(device=1)
      )
      (embed_positions): PipeFakeModule(role=PipeRole.dummy
        (fake_module): FakeSeqModule(device=1)
      )
      (final_layer_norm): PipeComputeModule(role=PipeRole.compute
        (module): LayerNorm((2048,), eps=1e-05, elementwise_affine=True)
      )
      (layers): ModuleList(
        (0-10): 11 x PipeFakeModule(role=PipeRole.dummy
          (fake_module): FakeTupleSeqModule(device=1)
        )
        (11): PipeStrategyModule(role=PipeRole.recv
          (module): FakeTupleSeqModule(device=1)
          (strategy): LeaderTupleStrategyModule()
        )
        (12-23): 12 x PipeComputeModule(role=PipeRole.compute
          (module): OPTDecoderLayer(
            (self_attn): OPTAttention(
              (k_proj): Linear(in_features=2048, out_features=2048, bias=True)
              (v_proj): Linear(in_features=2048, out_features=2048, bias=True)
              (q_proj): Linear(in_features=2048, out_features=2048, bias=True)
              (out_proj): Linear(in_features=2048, out_features=2048, bias=True)
            )
            (activation_fn): ReLU()
            (self_attn_layer_norm): LayerNorm((2048,), eps=1e-05, elementwise_affine=True)
            (fc1): Linear(in_features=2048, out_features=8192, bias=True)
            (fc2): Linear(in_features=8192, out_features=2048, bias=True)
            (final_layer_norm): LayerNorm((2048,), eps=1e-05, elementwise_affine=True)
          )
        )
      )
    )
  )
  (lm_head): PipeStrategyModule(role=PipeRole.computeAndSend
    (module): Linear(in_features=2048, out_features=50272, bias=False)
    (strategy): LeaderStrategyModule()
  )
)
                               time  ...  max_memory_gpu_1
name                                 ...                  
start                   4011.535472  ...          0.000003
generator               4015.528870  ...          2.634754
max new tokens:8 start  4015.531072  ...          2.634755
max new tokens:8 stop   4022.405707  ...          2.811665
…
