…
  return self.fget.__get__(instance, owner)()
start benchmark
/home/victor/anaconda3/envs/nir/lib/python3.11/site-packages/torch/cuda/memory.py:303: FutureWarning: torch.cuda.reset_max_memory_allocated now calls torch.cuda.reset_peak_memory_stats, which resets /all/ peak memory stats.
  warnings.warn(
/home/victor/anaconda3/envs/nir/lib/python3.11/site-packages/torch/cuda/memory.py:303: FutureWarning: torch.cuda.reset_max_memory_allocated now calls torch.cuda.reset_peak_memory_stats, which resets /all/ peak memory stats.
  warnings.warn(
model:
[OPTModel(
  (decoder): OPTDecoder(
    (embed_tokens): Embedding(50272, 2048, padding_idx=1)
    (embed_positions): OPTLearnedPositionalEmbedding(2050, 2048)
    (final_layer_norm): LayerNorm((2048,), eps=1e-05, elementwise_affine=True)
    (layers): ModuleList(
      (0-23): 24 x OPTDecoderLayer(
        (self_attn): OPTAttention(
          (k_proj): Linear(in_features=2048, out_features=2048, bias=True)
          (v_proj): Linear(in_features=2048, out_features=2048, bias=True)
          (q_proj): Linear(in_features=2048, out_features=2048, bias=True)
          (out_proj): Linear(in_features=2048, out_features=2048, bias=True)
        )
        (activation_fn): ReLU()
        (self_attn_layer_norm): LayerNorm((2048,), eps=1e-05, elementwise_affine=True)
        (fc1): Linear(in_features=2048, out_features=8192, bias=True)
        (fc2): Linear(in_features=8192, out_features=2048, bias=True)
        (final_layer_norm): LayerNorm((2048,), eps=1e-05, elementwise_affine=True)
      )
    )
  )
), Linear(in_features=2048, out_features=50272, bias=False)]
stop benchmark
                               time  ...  max_memory_gpu_1
name                                 ...                  
start                   4426.050122  ...          0.000003
generator               4433.040911  ...          0.000004
max new tokens:8 start  4433.043349  ...          0.000005
…
