…
  return self.fget.__get__(instance, owner)()
/home/victor/anaconda3/envs/nir/lib/python3.11/site-packages/torch/_utils.py:776: UserWarning: TypedStorage is deprecated. It will be removed in the future and UntypedStorage will be the only storage class. This should only matter to you if you are using storages directly.  To access UntypedStorage directly, use tensor.untyped_storage() instead of tensor.storage()
  return self.fget.__get__(instance, owner)()
---device:0---:
OPTForCausalLM(
  (model): OPTModel(
    (decoder): OPTDecoder(
      (embed_tokens): PipeComputeModule(role=PipeRole.compute
        (module): Embedding(50272, 2048, padding_idx=1)
      )
      (embed_positions): PipeComputeModule(role=PipeRole.compute
        (module): OPTLearnedPositionalEmbedding(2050, 2048)
      )
      (final_layer_norm): PipeFakeModule(role=PipeRole.dummy
        (module): FakeTensorModule(device=0)
      )
      (layers): ModuleList(
        (0-10): 11 x PipeComputeModule(role=PipeRole.compute
          (module): OPTDecoderLayer(
            (self_attn): OPTAttention(
              (k_proj): Linear(in_features=2048, out_features=2048, bias=True)
              (v_proj): Linear(in_features=2048, out_features=2048, bias=True)
              (q_proj): Linear(in_features=2048, out_features=2048, bias=True)
              (out_proj): Linear(in_features=2048, out_features=2048, bias=True)
            )
            (activation_fn): ReLU()
            (self_attn_layer_norm): LayerNorm((2048,), eps=1e-05, elementwise_affine=True)
            (fc1): Linear(in_features=2048, out_features=8192, bias=True)
            (fc2): Linear(in_features=8192, out_features=2048, bias=True)
            (final_layer_norm): LayerNorm((2048,), eps=1e-05, elementwise_affine=True)
          )
        )
        (11): PipeBoundaryPointModule(role=PipeRole.computeAndSend
          (module): OPTDecoderLayer(
            (self_attn): OPTAttention(
              (k_proj): Linear(in_features=2048, out_features=2048, bias=True)
              (v_proj): Linear(in_features=2048, out_features=2048, bias=True)
              (q_proj): Linear(in_features=2048, out_features=2048, bias=True)
              (out_proj): Linear(in_features=2048, out_features=2048, bias=True)
            )
            (activation_fn): ReLU()
            (self_attn_layer_norm): LayerNorm((2048,), eps=1e-05, elementwise_affine=True)
            (fc1): Linear(in_features=2048, out_features=8192, bias=True)
            (fc2): Linear(in_features=8192, out_features=2048, bias=True)
            (final_layer_norm): LayerNorm((2048,), eps=1e-05, elementwise_affine=True)
          )
          (strategy): LeaderTupleStrategyModule()
        )
        (12-23): 12 x PipeFakeModule(role=PipeRole.dummy
          (module): FakeTupleTensorWithCacheModule(device=0)
        )
      )
    )
  )
  (lm_head): PipeFakeModule(role=PipeRole.dummy
    (module): FakeTensorModule(device=0)
  )
)
Truncation was not explicitly activated bu
…
        [    2, 35166,  8619,    16,    10,  7208]], device='cuda:0'), 'attention_mask': tensor([[1, 1, 1, 1, 1, 1],
        [1, 1, 1, 1, 1, 1],
        [1, 1, 1, 1, 1, 1],
        [1, 1, 1, 1, 1, 1]], device='cuda:0')}
---device:1---:
OPTForCausalLM(
  (model): OPTModel(
    (decoder): OPTDecoder(
      (embed_tokens): PipeFakeModule(role=PipeRole.dummy
        (module): FakeTensorModule(device=1)
      )
      (embed_positions): PipeFakeModule(role=PipeRole.dummy
        (module): FakeTensorModule(device=1)
      )
      (final_layer_norm): PipeComputeModule(role=PipeRole.compute
        (module): LayerNorm((2048,), eps=1e-05, elementwise_affine=True)
      )
      (layers): ModuleList(
        (0-10): 11 x PipeFakeModule(role=PipeRole.dummy
          (module): FakeTupleTensorWithCacheModule(device=1)
        )
        (11): PipeBoundaryPointModule(role=PipeRole.recv
          (module): FakeTupleTensorWithCacheModule(device=1)
          (strategy): LeaderTupleStrategyModule()
        )
        (12-23): 12 x PipeComputeModule(role=PipeRole.compute
          (module): OPTDecoderLayer(
            (self_attn): OPTAttention(
              (k_proj): Linear(in_features=2048, out_features=2048, bias=True)
              (v_proj): Linear(in_features=2048, out_features=2048, bias=True)
              (q_proj): Linear(in_features=2048, out_features=2048, bias=True)
              (out_proj): Linear(in_features=2048, out_features=2048, bias=True)
            )
            (activation_fn): ReLU()
            (self_attn_layer_norm): LayerNorm((2048,), eps=1e-05, elementwise_affine=True)
            (fc1): Linear(in_features=2048, out_features=8192, bias=True)
            (fc2): Linear(in_features=8192, out_features=2048, bias=True)
            (final_layer_norm): LayerNorm((2048,), eps=1e-05, elementwise_affine=True)
          )
        )
      )
    )
  )
  (lm_head): PipeComputeModule(role=PipeRole.compute
    (module): Linear(in_features=2048, out_features=50272, bias=False)
  )
)
Truncation was not explicitly activated but `max_length` is provided a specific value, please use `truncation=True` to explicitly truncate examples to max length. Defaulting to 'longest_first' truncation strategy. If you encode pairs of sequences (GLUE-style) with the tokenizer you can select this strategy more precisely by providing a specific strategy to `truncation`.
…
