
torch.Size([8, 257, 1280])
ViTModel(
  (embeddings): ViTEmbeddings(
    (patch_embeddings): ViTPatchEmbeddings(
      (projection): Conv2d(3, 1280, kernel_size=(14, 14), stride=(14, 14))
    )
    (dropout): Dropout(p=0.0, inplace=False)
  )
  (encoder): ViTEncoder(
    (layer): ModuleList(
      (0-31): 32 x ViTLayer(
        (attention): ViTAttention(
          (attention): ViTSelfAttention(
            (query): Linear(in_features=1280, out_features=1280, bias=True)
            (key): Linear(in_features=1280, out_features=1280, bias=True)
            (value): Linear(in_features=1280, out_features=1280, bias=True)
          )
          (output): ViTSelfOutput(
            (dense): Linear(in_features=1280, out_features=1280, bias=True)
            (dropout): Dropout(p=0.0, inplace=False)
          )
        )
        (intermediate): ViTIntermediate(
          (dense): Linear(in_features=1280, out_features=5120, bias=True)
          (intermediate_act_fn): GELUActivation()
        )
        (output): ViTOutput(
          (dense): Linear(in_features=5120, out_features=1280, bias=True)
          (dropout): Dropout(p=0.0, inplace=False)
        )
        (layernorm_before): LayerNorm((1280,), eps=1e-12, elementwise_affine=True)
        (layernorm_after): LayerNorm((1280,), eps=1e-12, elementwise_affine=True)
      )
    )
  )
  (layernorm): LayerNorm((1280,), eps=1e-12, elementwise_affine=True)
  (pooler): ViTPooler(
    (dense): Linear(in_features=1280, out_features=1280, bias=True)
    (activation): Tanh()
  )
)
