torch.Size([8, 257, 1536])
Dinov2Model(
  (embeddings): Dinov2Embeddings(
    (patch_embeddings): Dinov2PatchEmbeddings(
      (projection): Conv2d(3, 1536, kernel_size=(14, 14), stride=(14, 14))
    )
    (dropout): Dropout(p=0.0, inplace=False)
  )
  (encoder): Dinov2Encoder(
    (layer): ModuleList(
      (0-39): 40 x Dinov2Layer(
        (norm1): LayerNorm((1536,), eps=1e-06, elementwise_affine=True)
        (attention): Dinov2Attention(
          (attention): Dinov2SelfAttention(
            (query): Linear(in_features=1536, out_features=1536, bias=True)
            (key): Linear(in_features=1536, out_features=1536, bias=True)
            (value): Linear(in_features=1536, out_features=1536, bias=True)
          )
          (output): Dinov2SelfOutput(
            (dense): Linear(in_features=1536, out_features=1536, bias=True)
            (dropout): Dropout(p=0.0, inplace=False)
          )
        )
        (layer_scale1): Dinov2LayerScale()
        (drop_path): Identity()
        (norm2): LayerNorm((1536,), eps=1e-06, elementwise_affine=True)
        (mlp): Dinov2SwiGLUFFN(
          (weights_in): Linear(in_features=1536, out_features=8192, bias=True)
          (weights_out): Linear(in_features=4096, out_features=1536, bias=True)
        )
        (layer_scale2): Dinov2LayerScale()
      )
    )
  )
  (layernorm): LayerNorm((1536,), eps=1e-06, elementwise_affine=True)
)
