…
---device:2---:
InternVisionModel(
  (embeddings): PipeFakeModule(role=PipeRole.dummy
    (module): FakeTensorModule(device=2)
  )
  (encoder): InternVisionEncoder(
    (layers): ModuleList(
      (0-19): 20 x PipeFakeModule(role=PipeRole.dummy
        (module): FakeTensorModule(device=2)
      )
      (20): PipeInnerBoundaryPointModule(role=PipeRole.recv
        (module): FakeTensorModule(device=2)
        (strategy): LeaderStrategyModule()
      )
      (21-30): 10 x PipeComputeModule(role=PipeRole.compute
        (module): InternVisionEncoderLayer(
          (attn): InternAttention(
            (qkv): Linear(in_features=3200, out_features=9600, bias=False)
            (attn_drop): Dropout(p=0.0, inplace=False)
            (proj_drop): Dropout(p=0.0, inplace=False)
            (q_norm): InternRMSNorm()
            (k_norm): InternRMSNorm()
            (proj): Linear(in_features=3200, out_features=3200, bias=True)
          )
          (mlp): InternMLP(
            (act): GELUActivation()
            (fc1): Linear(in_features=3200, out_features=12800, bias=True)
            (fc2): Linear(in_features=12800, out_features=3200, bias=True)
          )
          (norm1): InternRMSNorm()
          (norm2): InternRMSNorm()
          (drop_path1): Identity()
          (drop_path2): Identity()
        )
      )
      (31): PipeInnerBoundaryPointModule(role=PipeRole.computeAndSend
        (module): InternVisionEncoderLayer(
          (attn): InternAttention(
            (qkv): Linear(in_features=3200, out_features=9600, bias=False)
            (attn_drop): Dropout(p=0.0, inplace=False)
            (proj_drop): Dropout(p=0.0, inplace=False)
            (q_norm): InternRMSNorm()
            (k_norm): InternRMSNorm()
            (proj): Linear(in_features=3200, out_features=3200, bias=True)
          )
          (mlp): InternMLP(
            (act): GELUActivation()
            (fc1): Linear(in_features=3200, out_features=12800, bias=True)
            (fc2): Linear(in_features=12800, out_features=3200, bias=True)
          )
          (norm1): InternRMSNorm()
          (norm2): InternRMSNorm()
          (drop_path1): Identity()
          (drop_path2): Identity()
        )
        (strategy): LeaderStrategyModule()
      )
      (32-44): 13 x PipeFakeModule(role=PipeRole.dummy
        (module): FakeTensorModule(device=2)
      )
    )
  )
)
---device:3---:
InternVisionModel(
  (embeddings): PipeFakeModule(role=PipeRole.dummy
    (module): FakeTensorModule(device=3)
  )
  (encoder): InternVisionEncoder(
    (layers): ModuleList(
      (0-30): 31 x PipeFakeModule(role=PipeRole.dummy
        (module): FakeTensorModule(device=3)
      )
      (31): PipeInnerBoundaryPointModule(role=PipeRole.recv
        (module): FakeTensorModule(device=3)
        (strategy): LeaderStrategyModule()
      )
      (32-44): 13 x PipeComputeModule(role=PipeRole.compute
        (module): InternVisionEncoderLayer(
          (attn): InternAttention(
            (qkv): Linear(in_features=3200, out_features=9600, bias=False)
            (attn_drop): Dropout(p=0.0, inplace=False)
            (proj_drop): Dropout(p=0.0, inplace=False)
            (q_norm): InternRMSNorm()
            (k_norm): InternRMSNorm()
            (proj): Linear(in_features=3200, out_features=3200, bias=True)
          )
          (mlp): InternMLP(
            (act): GELUActivation()
            (fc1): Linear(in_features=3200, out_features=12800, bias=True)
            (fc2): Linear(in_features=12800, out_features=3200, bias=True)
          )
          (norm1): InternRMSNorm()
          (norm2): InternRMSNorm()
          (drop_path1): Identity()
          (drop_path2): Identity()
        )
      )
    )
  )
)
---device:0---:
InternVisionModel(
  (embeddings): PipeComputeModule(role=PipeRole.compute
    (module): InternVisionEmbeddings(
      (patch_embedding): Conv2d(3, 3200, kernel_size=(14, 14), stride=(14, 14))
    )
  )
  (encoder): InternVisionEncoder(
    (layers): ModuleList(
      (0-8): 9 x PipeComputeModule(role=PipeRole.compute
        (module): InternVisionEncoderLayer(
          (attn): InternAttention(
            (qkv): Linear(in_features=3200, out_features=9600, bias=False)
            (attn_drop): Dropout(p=0.0, inplace=False)
            (proj_drop): Dropout(p=0.0, inplace=False)
            (q_norm): InternRMSNorm()
            (k_norm): InternRMSNorm()
            (proj): Linear(in_features=3200, out_features=3200, bias=True)
          )
          (mlp): InternMLP(
            (act): GELUActivation()
            (fc1): Linear(in_features=3200, out_features=12800, bias=True)
            (fc2): Linear(in_features=12800, out_features=3200, bias=True)
          )
          (norm1): InternRMSNorm()
          (norm2): InternRMSNorm()
          (drop_path1): Identity()
          (drop_path2): Identity()
        )
      )
      (9): PipeInnerBoundaryPointModule(role=PipeRole.computeAndSend
        (module): InternVisionEncoderLayer(
          (attn): InternAttention(
            (qkv): Linear(in_features=3200, out_features=9600, bias=False)
            (attn_drop): Dropout(p=0.0, inplace=False)
            (proj_drop): Dropout(p=0.0, inplace=False)
            (q_norm): InternRMSNorm()
            (k_norm): InternRMSNorm()
            (proj): Linear(in_features=3200, out_features=3200, bias=True)
          )
          (mlp): InternMLP(
            (act): GELUActivation()
            (fc1): Linear(in_features=3200, out_features=12800, bias=True)
            (fc2): Linear(in_features=12800, out_features=3200, bias=True)
          )
          (norm1): InternRMSNorm()
          (norm2): InternRMSNorm()
          (drop_path1): Identity()
          (drop_path2): Identity()
        )
        (strategy): LeaderStrategyModule()
      )
      (10-44): 35 x PipeFakeModule(role=PipeRole.dummy
        (module): FakeTensorModule(device=0)
      )
    )
  )
)
---device:1---:
InternVisionModel(
…
